[jue 19 jun 2025 11:37:33 -04] Python: /mnt/beegfs/home/fcorrea/micromamba/envs/pathonet/bin/python
[jue 19 jun 2025 11:37:37 -04] Iniciando entrenamiento en tokikura
Compiling model...
__________________________________________________________________________________________________
Layer (type)                    Output Shape         Param #     Connected to                     
==================================================================================================
input_1 (InputLayer)            (None, 256, 256, 3)  0                                            
__________________________________________________________________________________________________
conv2d_1 (Conv2D)               (None, 256, 256, 16) 432         input_1[0][0]                    
__________________________________________________________________________________________________
batch_normalization_1 (BatchNor (None, 256, 256, 16) 64          conv2d_1[0][0]                   
__________________________________________________________________________________________________
leaky_re_lu_1 (LeakyReLU)       (None, 256, 256, 16) 0           batch_normalization_1[0][0]      
__________________________________________________________________________________________________
conv2d_2 (Conv2D)               (None, 256, 256, 16) 2304        leaky_re_lu_1[0][0]              
__________________________________________________________________________________________________
batch_normalization_2 (BatchNor (None, 256, 256, 16) 64          conv2d_2[0][0]                   
__________________________________________________________________________________________________
leaky_re_lu_2 (LeakyReLU)       (None, 256, 256, 16) 0           batch_normalization_2[0][0]      
__________________________________________________________________________________________________
max_pooling2d_1 (MaxPooling2D)  (None, 128, 128, 16) 0           leaky_re_lu_2[0][0]              
__________________________________________________________________________________________________
conv2d_3 (Conv2D)               (None, 128, 128, 32) 4608        max_pooling2d_1[0][0]            
__________________________________________________________________________________________________
conv2d_5 (Conv2D)               (None, 128, 128, 32) 4608        max_pooling2d_1[0][0]            
__________________________________________________________________________________________________
batch_normalization_3 (BatchNor (None, 128, 128, 32) 128         conv2d_3[0][0]                   
__________________________________________________________________________________________________
batch_normalization_5 (BatchNor (None, 128, 128, 32) 128         conv2d_5[0][0]                   
__________________________________________________________________________________________________
leaky_re_lu_3 (LeakyReLU)       (None, 128, 128, 32) 0           batch_normalization_3[0][0]      
__________________________________________________________________________________________________
leaky_re_lu_5 (LeakyReLU)       (None, 128, 128, 32) 0           batch_normalization_5[0][0]      
__________________________________________________________________________________________________
conv2d_4 (Conv2D)               (None, 128, 128, 32) 9216        leaky_re_lu_3[0][0]              
__________________________________________________________________________________________________
conv2d_6 (Conv2D)               (None, 128, 128, 32) 9216        leaky_re_lu_5[0][0]              
__________________________________________________________________________________________________
batch_normalization_4 (BatchNor (None, 128, 128, 32) 128         conv2d_4[0][0]                   
__________________________________________________________________________________________________
batch_normalization_6 (BatchNor (None, 128, 128, 32) 128         conv2d_6[0][0]                   
__________________________________________________________________________________________________
leaky_re_lu_4 (LeakyReLU)       (None, 128, 128, 32) 0           batch_normalization_4[0][0]      
__________________________________________________________________________________________________
leaky_re_lu_6 (LeakyReLU)       (None, 128, 128, 32) 0           batch_normalization_6[0][0]      
__________________________________________________________________________________________________
concatenate_1 (Concatenate)     (None, 128, 128, 32) 0           max_pooling2d_1[0][0]            
                                                                 max_pooling2d_1[0][0]            
__________________________________________________________________________________________________
add_1 (Add)                     (None, 128, 128, 32) 0           leaky_re_lu_4[0][0]              
                                                                 leaky_re_lu_6[0][0]              
                                                                 concatenate_1[0][0]              
__________________________________________________________________________________________________
batch_normalization_7 (BatchNor (None, 128, 128, 32) 128         add_1[0][0]                      
__________________________________________________________________________________________________
leaky_re_lu_7 (LeakyReLU)       (None, 128, 128, 32) 0           batch_normalization_7[0][0]      
__________________________________________________________________________________________________
max_pooling2d_2 (MaxPooling2D)  (None, 64, 64, 32)   0           leaky_re_lu_7[0][0]              
__________________________________________________________________________________________________
conv2d_7 (Conv2D)               (None, 64, 64, 64)   18432       max_pooling2d_2[0][0]            
__________________________________________________________________________________________________
conv2d_9 (Conv2D)               (None, 64, 64, 64)   18432       max_pooling2d_2[0][0]            
__________________________________________________________________________________________________
batch_normalization_8 (BatchNor (None, 64, 64, 64)   256         conv2d_7[0][0]                   
__________________________________________________________________________________________________
batch_normalization_10 (BatchNo (None, 64, 64, 64)   256         conv2d_9[0][0]                   
__________________________________________________________________________________________________
leaky_re_lu_8 (LeakyReLU)       (None, 64, 64, 64)   0           batch_normalization_8[0][0]      
__________________________________________________________________________________________________
leaky_re_lu_10 (LeakyReLU)      (None, 64, 64, 64)   0           batch_normalization_10[0][0]     
__________________________________________________________________________________________________
conv2d_8 (Conv2D)               (None, 64, 64, 64)   36864       leaky_re_lu_8[0][0]              
__________________________________________________________________________________________________
conv2d_10 (Conv2D)              (None, 64, 64, 64)   36864       leaky_re_lu_10[0][0]             
__________________________________________________________________________________________________
batch_normalization_9 (BatchNor (None, 64, 64, 64)   256         conv2d_8[0][0]                   
__________________________________________________________________________________________________
batch_normalization_11 (BatchNo (None, 64, 64, 64)   256         conv2d_10[0][0]                  
__________________________________________________________________________________________________
leaky_re_lu_9 (LeakyReLU)       (None, 64, 64, 64)   0           batch_normalization_9[0][0]      
__________________________________________________________________________________________________
leaky_re_lu_11 (LeakyReLU)      (None, 64, 64, 64)   0           batch_normalization_11[0][0]     
__________________________________________________________________________________________________
concatenate_2 (Concatenate)     (None, 64, 64, 64)   0           max_pooling2d_2[0][0]            
                                                                 max_pooling2d_2[0][0]            
__________________________________________________________________________________________________
add_2 (Add)                     (None, 64, 64, 64)   0           leaky_re_lu_9[0][0]              
                                                                 leaky_re_lu_11[0][0]             
                                                                 concatenate_2[0][0]              
__________________________________________________________________________________________________
batch_normalization_12 (BatchNo (None, 64, 64, 64)   256         add_2[0][0]                      
__________________________________________________________________________________________________
leaky_re_lu_12 (LeakyReLU)      (None, 64, 64, 64)   0           batch_normalization_12[0][0]     
__________________________________________________________________________________________________
max_pooling2d_3 (MaxPooling2D)  (None, 32, 32, 64)   0           leaky_re_lu_12[0][0]             
__________________________________________________________________________________________________
conv2d_11 (Conv2D)              (None, 32, 32, 128)  73728       max_pooling2d_3[0][0]            
__________________________________________________________________________________________________
conv2d_13 (Conv2D)              (None, 32, 32, 128)  73728       max_pooling2d_3[0][0]            
__________________________________________________________________________________________________
batch_normalization_13 (BatchNo (None, 32, 32, 128)  512         conv2d_11[0][0]                  
__________________________________________________________________________________________________
batch_normalization_15 (BatchNo (None, 32, 32, 128)  512         conv2d_13[0][0]                  
__________________________________________________________________________________________________
leaky_re_lu_13 (LeakyReLU)      (None, 32, 32, 128)  0           batch_normalization_13[0][0]     
__________________________________________________________________________________________________
leaky_re_lu_15 (LeakyReLU)      (None, 32, 32, 128)  0           batch_normalization_15[0][0]     
__________________________________________________________________________________________________
conv2d_12 (Conv2D)              (None, 32, 32, 128)  147456      leaky_re_lu_13[0][0]             
__________________________________________________________________________________________________
conv2d_14 (Conv2D)              (None, 32, 32, 128)  147456      leaky_re_lu_15[0][0]             
__________________________________________________________________________________________________
batch_normalization_14 (BatchNo (None, 32, 32, 128)  512         conv2d_12[0][0]                  
__________________________________________________________________________________________________
batch_normalization_16 (BatchNo (None, 32, 32, 128)  512         conv2d_14[0][0]                  
__________________________________________________________________________________________________
leaky_re_lu_14 (LeakyReLU)      (None, 32, 32, 128)  0           batch_normalization_14[0][0]     
__________________________________________________________________________________________________
leaky_re_lu_16 (LeakyReLU)      (None, 32, 32, 128)  0           batch_normalization_16[0][0]     
__________________________________________________________________________________________________
concatenate_3 (Concatenate)     (None, 32, 32, 128)  0           max_pooling2d_3[0][0]            
                                                                 max_pooling2d_3[0][0]            
__________________________________________________________________________________________________
add_3 (Add)                     (None, 32, 32, 128)  0           leaky_re_lu_14[0][0]             
                                                                 leaky_re_lu_16[0][0]             
                                                                 concatenate_3[0][0]              
__________________________________________________________________________________________________
batch_normalization_17 (BatchNo (None, 32, 32, 128)  512         add_3[0][0]                      
__________________________________________________________________________________________________
leaky_re_lu_17 (LeakyReLU)      (None, 32, 32, 128)  0           batch_normalization_17[0][0]     
__________________________________________________________________________________________________
max_pooling2d_4 (MaxPooling2D)  (None, 16, 16, 128)  0           leaky_re_lu_17[0][0]             
__________________________________________________________________________________________________
dropout_1 (Dropout)             (None, 16, 16, 128)  0           max_pooling2d_4[0][0]            
__________________________________________________________________________________________________
conv2d_15 (Conv2D)              (None, 16, 16, 256)  294912      dropout_1[0][0]                  
__________________________________________________________________________________________________
conv2d_17 (Conv2D)              (None, 16, 16, 256)  294912      dropout_1[0][0]                  
__________________________________________________________________________________________________
batch_normalization_18 (BatchNo (None, 16, 16, 256)  1024        conv2d_15[0][0]                  
__________________________________________________________________________________________________
batch_normalization_20 (BatchNo (None, 16, 16, 256)  1024        conv2d_17[0][0]                  
__________________________________________________________________________________________________
leaky_re_lu_18 (LeakyReLU)      (None, 16, 16, 256)  0           batch_normalization_18[0][0]     
__________________________________________________________________________________________________
leaky_re_lu_20 (LeakyReLU)      (None, 16, 16, 256)  0           batch_normalization_20[0][0]     
__________________________________________________________________________________________________
conv2d_16 (Conv2D)              (None, 16, 16, 256)  589824      leaky_re_lu_18[0][0]             
__________________________________________________________________________________________________
conv2d_18 (Conv2D)              (None, 16, 16, 256)  589824      leaky_re_lu_20[0][0]             
__________________________________________________________________________________________________
batch_normalization_19 (BatchNo (None, 16, 16, 256)  1024        conv2d_16[0][0]                  
__________________________________________________________________________________________________
batch_normalization_21 (BatchNo (None, 16, 16, 256)  1024        conv2d_18[0][0]                  
__________________________________________________________________________________________________
leaky_re_lu_19 (LeakyReLU)      (None, 16, 16, 256)  0           batch_normalization_19[0][0]     
__________________________________________________________________________________________________
leaky_re_lu_21 (LeakyReLU)      (None, 16, 16, 256)  0           batch_normalization_21[0][0]     
__________________________________________________________________________________________________
concatenate_4 (Concatenate)     (None, 16, 16, 256)  0           dropout_1[0][0]                  
                                                                 dropout_1[0][0]                  
__________________________________________________________________________________________________
add_4 (Add)                     (None, 16, 16, 256)  0           leaky_re_lu_19[0][0]             
                                                                 leaky_re_lu_21[0][0]             
                                                                 concatenate_4[0][0]              
__________________________________________________________________________________________________
batch_normalization_22 (BatchNo (None, 16, 16, 256)  1024        add_4[0][0]                      
__________________________________________________________________________________________________
leaky_re_lu_22 (LeakyReLU)      (None, 16, 16, 256)  0           batch_normalization_22[0][0]     
__________________________________________________________________________________________________
dropout_2 (Dropout)             (None, 16, 16, 256)  0           leaky_re_lu_22[0][0]             
__________________________________________________________________________________________________
up_sampling2d_1 (UpSampling2D)  (None, 32, 32, 256)  0           dropout_2[0][0]                  
__________________________________________________________________________________________________
conv2d_19 (Conv2D)              (None, 32, 32, 128)  32768       up_sampling2d_1[0][0]            
__________________________________________________________________________________________________
batch_normalization_23 (BatchNo (None, 32, 32, 128)  512         conv2d_19[0][0]                  
__________________________________________________________________________________________________
leaky_re_lu_23 (LeakyReLU)      (None, 32, 32, 128)  0           batch_normalization_23[0][0]     
__________________________________________________________________________________________________
conv2d_20 (Conv2D)              (None, 32, 32, 128)  16384       leaky_re_lu_23[0][0]             
__________________________________________________________________________________________________
batch_normalization_24 (BatchNo (None, 32, 32, 128)  512         conv2d_20[0][0]                  
__________________________________________________________________________________________________
leaky_re_lu_24 (LeakyReLU)      (None, 32, 32, 128)  0           batch_normalization_24[0][0]     
__________________________________________________________________________________________________
conv2d_21 (Conv2D)              (None, 32, 32, 128)  147456      leaky_re_lu_24[0][0]             
__________________________________________________________________________________________________
conv2d_23 (Conv2D)              (None, 32, 32, 128)  147456      leaky_re_lu_24[0][0]             
__________________________________________________________________________________________________
batch_normalization_25 (BatchNo (None, 32, 32, 128)  512         conv2d_21[0][0]                  
__________________________________________________________________________________________________
batch_normalization_27 (BatchNo (None, 32, 32, 128)  512         conv2d_23[0][0]                  
__________________________________________________________________________________________________
leaky_re_lu_25 (LeakyReLU)      (None, 32, 32, 128)  0           batch_normalization_25[0][0]     
__________________________________________________________________________________________________
leaky_re_lu_27 (LeakyReLU)      (None, 32, 32, 128)  0           batch_normalization_27[0][0]     
__________________________________________________________________________________________________
conv2d_22 (Conv2D)              (None, 32, 32, 128)  147456      leaky_re_lu_25[0][0]             
__________________________________________________________________________________________________
conv2d_24 (Conv2D)              (None, 32, 32, 128)  147456      leaky_re_lu_27[0][0]             
__________________________________________________________________________________________________
batch_normalization_26 (BatchNo (None, 32, 32, 128)  512         conv2d_22[0][0]                  
__________________________________________________________________________________________________
batch_normalization_28 (BatchNo (None, 32, 32, 128)  512         conv2d_24[0][0]                  
__________________________________________________________________________________________________
leaky_re_lu_26 (LeakyReLU)      (None, 32, 32, 128)  0           batch_normalization_26[0][0]     
__________________________________________________________________________________________________
leaky_re_lu_28 (LeakyReLU)      (None, 32, 32, 128)  0           batch_normalization_28[0][0]     
__________________________________________________________________________________________________
add_5 (Add)                     (None, 32, 32, 128)  0           leaky_re_lu_26[0][0]             
                                                                 leaky_re_lu_28[0][0]             
                                                                 leaky_re_lu_24[0][0]             
__________________________________________________________________________________________________
batch_normalization_29 (BatchNo (None, 32, 32, 128)  512         add_5[0][0]                      
__________________________________________________________________________________________________
leaky_re_lu_29 (LeakyReLU)      (None, 32, 32, 128)  0           batch_normalization_29[0][0]     
__________________________________________________________________________________________________
concatenate_5 (Concatenate)     (None, 32, 32, 256)  0           leaky_re_lu_17[0][0]             
                                                                 leaky_re_lu_29[0][0]             
__________________________________________________________________________________________________
up_sampling2d_2 (UpSampling2D)  (None, 64, 64, 256)  0           concatenate_5[0][0]              
__________________________________________________________________________________________________
conv2d_25 (Conv2D)              (None, 64, 64, 64)   16384       up_sampling2d_2[0][0]            
__________________________________________________________________________________________________
batch_normalization_30 (BatchNo (None, 64, 64, 64)   256         conv2d_25[0][0]                  
__________________________________________________________________________________________________
leaky_re_lu_30 (LeakyReLU)      (None, 64, 64, 64)   0           batch_normalization_30[0][0]     
__________________________________________________________________________________________________
conv2d_26 (Conv2D)              (None, 64, 64, 64)   4096        leaky_re_lu_30[0][0]             
__________________________________________________________________________________________________
batch_normalization_31 (BatchNo (None, 64, 64, 64)   256         conv2d_26[0][0]                  
__________________________________________________________________________________________________
leaky_re_lu_31 (LeakyReLU)      (None, 64, 64, 64)   0           batch_normalization_31[0][0]     
__________________________________________________________________________________________________
conv2d_27 (Conv2D)              (None, 64, 64, 64)   36864       leaky_re_lu_31[0][0]             
__________________________________________________________________________________________________
conv2d_29 (Conv2D)              (None, 64, 64, 64)   36864       leaky_re_lu_31[0][0]             
__________________________________________________________________________________________________
batch_normalization_32 (BatchNo (None, 64, 64, 64)   256         conv2d_27[0][0]                  
__________________________________________________________________________________________________
batch_normalization_34 (BatchNo (None, 64, 64, 64)   256         conv2d_29[0][0]                  
__________________________________________________________________________________________________
leaky_re_lu_32 (LeakyReLU)      (None, 64, 64, 64)   0           batch_normalization_32[0][0]     
__________________________________________________________________________________________________
leaky_re_lu_34 (LeakyReLU)      (None, 64, 64, 64)   0           batch_normalization_34[0][0]     
__________________________________________________________________________________________________
conv2d_28 (Conv2D)              (None, 64, 64, 64)   36864       leaky_re_lu_32[0][0]             
__________________________________________________________________________________________________
conv2d_30 (Conv2D)              (None, 64, 64, 64)   36864       leaky_re_lu_34[0][0]             
__________________________________________________________________________________________________
batch_normalization_33 (BatchNo (None, 64, 64, 64)   256         conv2d_28[0][0]                  
__________________________________________________________________________________________________
batch_normalization_35 (BatchNo (None, 64, 64, 64)   256         conv2d_30[0][0]                  
__________________________________________________________________________________________________
leaky_re_lu_33 (LeakyReLU)      (None, 64, 64, 64)   0           batch_normalization_33[0][0]     
__________________________________________________________________________________________________
leaky_re_lu_35 (LeakyReLU)      (None, 64, 64, 64)   0           batch_normalization_35[0][0]     
__________________________________________________________________________________________________
add_6 (Add)                     (None, 64, 64, 64)   0           leaky_re_lu_33[0][0]             
                                                                 leaky_re_lu_35[0][0]             
                                                                 leaky_re_lu_31[0][0]             
__________________________________________________________________________________________________
batch_normalization_36 (BatchNo (None, 64, 64, 64)   256         add_6[0][0]                      
__________________________________________________________________________________________________
leaky_re_lu_36 (LeakyReLU)      (None, 64, 64, 64)   0           batch_normalization_36[0][0]     
__________________________________________________________________________________________________
concatenate_6 (Concatenate)     (None, 64, 64, 128)  0           leaky_re_lu_12[0][0]             
                                                                 leaky_re_lu_36[0][0]             
__________________________________________________________________________________________________
up_sampling2d_3 (UpSampling2D)  (None, 128, 128, 128 0           concatenate_6[0][0]              
__________________________________________________________________________________________________
conv2d_31 (Conv2D)              (None, 128, 128, 32) 4096        up_sampling2d_3[0][0]            
__________________________________________________________________________________________________
batch_normalization_37 (BatchNo (None, 128, 128, 32) 128         conv2d_31[0][0]                  
__________________________________________________________________________________________________
leaky_re_lu_37 (LeakyReLU)      (None, 128, 128, 32) 0           batch_normalization_37[0][0]     
__________________________________________________________________________________________________
conv2d_32 (Conv2D)              (None, 128, 128, 32) 1024        leaky_re_lu_37[0][0]             
__________________________________________________________________________________________________
batch_normalization_38 (BatchNo (None, 128, 128, 32) 128         conv2d_32[0][0]                  
__________________________________________________________________________________________________
leaky_re_lu_38 (LeakyReLU)      (None, 128, 128, 32) 0           batch_normalization_38[0][0]     
__________________________________________________________________________________________________
conv2d_33 (Conv2D)              (None, 128, 128, 32) 9216        leaky_re_lu_38[0][0]             
__________________________________________________________________________________________________
conv2d_35 (Conv2D)              (None, 128, 128, 32) 9216        leaky_re_lu_38[0][0]             
__________________________________________________________________________________________________
batch_normalization_39 (BatchNo (None, 128, 128, 32) 128         conv2d_33[0][0]                  
__________________________________________________________________________________________________
batch_normalization_41 (BatchNo (None, 128, 128, 32) 128         conv2d_35[0][0]                  
__________________________________________________________________________________________________
leaky_re_lu_39 (LeakyReLU)      (None, 128, 128, 32) 0           batch_normalization_39[0][0]     
__________________________________________________________________________________________________
leaky_re_lu_41 (LeakyReLU)      (None, 128, 128, 32) 0           batch_normalization_41[0][0]     
__________________________________________________________________________________________________
conv2d_34 (Conv2D)              (None, 128, 128, 32) 9216        leaky_re_lu_39[0][0]             
__________________________________________________________________________________________________
conv2d_36 (Conv2D)              (None, 128, 128, 32) 9216        leaky_re_lu_41[0][0]             
__________________________________________________________________________________________________
batch_normalization_40 (BatchNo (None, 128, 128, 32) 128         conv2d_34[0][0]                  
__________________________________________________________________________________________________
batch_normalization_42 (BatchNo (None, 128, 128, 32) 128         conv2d_36[0][0]                  
__________________________________________________________________________________________________
leaky_re_lu_40 (LeakyReLU)      (None, 128, 128, 32) 0           batch_normalization_40[0][0]     
__________________________________________________________________________________________________
leaky_re_lu_42 (LeakyReLU)      (None, 128, 128, 32) 0           batch_normalization_42[0][0]     
__________________________________________________________________________________________________
add_7 (Add)                     (None, 128, 128, 32) 0           leaky_re_lu_40[0][0]             
                                                                 leaky_re_lu_42[0][0]             
                                                                 leaky_re_lu_38[0][0]             
__________________________________________________________________________________________________
batch_normalization_43 (BatchNo (None, 128, 128, 32) 128         add_7[0][0]                      
__________________________________________________________________________________________________
leaky_re_lu_43 (LeakyReLU)      (None, 128, 128, 32) 0           batch_normalization_43[0][0]     
__________________________________________________________________________________________________
concatenate_7 (Concatenate)     (None, 128, 128, 64) 0           leaky_re_lu_7[0][0]              
                                                                 leaky_re_lu_43[0][0]             
__________________________________________________________________________________________________
up_sampling2d_4 (UpSampling2D)  (None, 256, 256, 64) 0           concatenate_7[0][0]              
__________________________________________________________________________________________________
conv2d_37 (Conv2D)              (None, 256, 256, 16) 1024        up_sampling2d_4[0][0]            
__________________________________________________________________________________________________
batch_normalization_44 (BatchNo (None, 256, 256, 16) 64          conv2d_37[0][0]                  
__________________________________________________________________________________________________
leaky_re_lu_44 (LeakyReLU)      (None, 256, 256, 16) 0           batch_normalization_44[0][0]     
__________________________________________________________________________________________________
conv2d_38 (Conv2D)              (None, 256, 256, 16) 256         leaky_re_lu_44[0][0]             
__________________________________________________________________________________________________
batch_normalization_45 (BatchNo (None, 256, 256, 16) 64          conv2d_38[0][0]                  
__________________________________________________________________________________________________
leaky_re_lu_45 (LeakyReLU)      (None, 256, 256, 16) 0           batch_normalization_45[0][0]     
__________________________________________________________________________________________________
conv2d_39 (Conv2D)              (None, 256, 256, 16) 2304        leaky_re_lu_45[0][0]             
__________________________________________________________________________________________________
conv2d_41 (Conv2D)              (None, 256, 256, 16) 2304        leaky_re_lu_45[0][0]             
__________________________________________________________________________________________________
batch_normalization_46 (BatchNo (None, 256, 256, 16) 64          conv2d_39[0][0]                  
__________________________________________________________________________________________________
batch_normalization_48 (BatchNo (None, 256, 256, 16) 64          conv2d_41[0][0]                  
__________________________________________________________________________________________________
leaky_re_lu_46 (LeakyReLU)      (None, 256, 256, 16) 0           batch_normalization_46[0][0]     
__________________________________________________________________________________________________
leaky_re_lu_48 (LeakyReLU)      (None, 256, 256, 16) 0           batch_normalization_48[0][0]     
__________________________________________________________________________________________________
conv2d_40 (Conv2D)              (None, 256, 256, 16) 2304        leaky_re_lu_46[0][0]             
__________________________________________________________________________________________________
conv2d_42 (Conv2D)              (None, 256, 256, 16) 2304        leaky_re_lu_48[0][0]             
__________________________________________________________________________________________________
batch_normalization_47 (BatchNo (None, 256, 256, 16) 64          conv2d_40[0][0]                  
__________________________________________________________________________________________________
batch_normalization_49 (BatchNo (None, 256, 256, 16) 64          conv2d_42[0][0]                  
__________________________________________________________________________________________________
leaky_re_lu_47 (LeakyReLU)      (None, 256, 256, 16) 0           batch_normalization_47[0][0]     
__________________________________________________________________________________________________
leaky_re_lu_49 (LeakyReLU)      (None, 256, 256, 16) 0           batch_normalization_49[0][0]     
__________________________________________________________________________________________________
add_8 (Add)                     (None, 256, 256, 16) 0           leaky_re_lu_47[0][0]             
                                                                 leaky_re_lu_49[0][0]             
                                                                 leaky_re_lu_45[0][0]             
__________________________________________________________________________________________________
batch_normalization_50 (BatchNo (None, 256, 256, 16) 64          add_8[0][0]                      
__________________________________________________________________________________________________
leaky_re_lu_50 (LeakyReLU)      (None, 256, 256, 16) 0           batch_normalization_50[0][0]     
__________________________________________________________________________________________________
concatenate_8 (Concatenate)     (None, 256, 256, 32) 0           leaky_re_lu_2[0][0]              
                                                                 leaky_re_lu_50[0][0]             
__________________________________________________________________________________________________
conv2d_43 (Conv2D)              (None, 256, 256, 16) 4608        concatenate_8[0][0]              
__________________________________________________________________________________________________
batch_normalization_51 (BatchNo (None, 256, 256, 16) 64          conv2d_43[0][0]                  
__________________________________________________________________________________________________
leaky_re_lu_51 (LeakyReLU)      (None, 256, 256, 16) 0           batch_normalization_51[0][0]     
__________________________________________________________________________________________________
conv2d_44 (Conv2D)              (None, 256, 256, 16) 2304        leaky_re_lu_51[0][0]             
__________________________________________________________________________________________________
batch_normalization_52 (BatchNo (None, 256, 256, 16) 64          conv2d_44[0][0]                  
__________________________________________________________________________________________________
leaky_re_lu_52 (LeakyReLU)      (None, 256, 256, 16) 0           batch_normalization_52[0][0]     
__________________________________________________________________________________________________
conv2d_45 (Conv2D)              (None, 256, 256, 8)  1152        leaky_re_lu_52[0][0]             
__________________________________________________________________________________________________
batch_normalization_53 (BatchNo (None, 256, 256, 8)  32          conv2d_45[0][0]                  
__________________________________________________________________________________________________
leaky_re_lu_53 (LeakyReLU)      (None, 256, 256, 8)  0           batch_normalization_53[0][0]     
__________________________________________________________________________________________________
conv2d_46 (Conv2D)              (None, 256, 256, 3)  27          leaky_re_lu_53[0][0]             
==================================================================================================
Total params: 3,236,907
Trainable params: 3,228,603
Non-trainable params: 8,304
__________________________________________________________________________________________________
Fitting model...
Epoch 1/30
Learning rate for epoch 1 is 0.01.

 1/82 [..............................] - ETA: 17:28:29 - loss: 282.2403
…
